{"class_name": "Sequential", "config": {"name": "sequential_2", "layers": [{"class_name": "Dense", "config": {"name": "dense_2", "trainable": true, "batch_input_shape": [null, 100], "dtype": "float32", "units": 8192, "activation": "linear", "use_bias": true, "kernel_initializer": {"class_name": "TruncatedNormal", "config": {"mean": 0.0, "stddev": 0.1, "seed": null}}, "bias_initializer": {"class_name": "Zeros", "config": {}}, "kernel_regularizer": null, "bias_regularizer": null, "activity_regularizer": null, "kernel_constraint": null, "bias_constraint": null}}, {"class_name": "Activation", "config": {"name": "activation_2", "trainable": true, "activation": "linear"}}, {"class_name": "Reshape", "config": {"name": "reshape_1", "trainable": true, "target_shape": [4, 4, 512]}}, {"class_name": "Conv2DTranspose", "config": {"name": "conv2d_transpose_1", "trainable": true, "filters": 256, "kernel_size": [5, 5], "strides": [2, 2], "padding": "same", "data_format": "channels_last", "dilation_rate": [1, 1], "activation": "linear", "use_bias": true, "kernel_initializer": {"class_name": "TruncatedNormal", "config": {"mean": 0.0, "stddev": 0.1, "seed": null}}, "bias_initializer": {"class_name": "Zeros", "config": {}}, "kernel_regularizer": null, "bias_regularizer": null, "activity_regularizer": null, "kernel_constraint": null, "bias_constraint": null, "output_padding": null}}, {"class_name": "Activation", "config": {"name": "activation_3", "trainable": true, "activation": "tanh"}}, {"class_name": "Conv2DTranspose", "config": {"name": "conv2d_transpose_2", "trainable": true, "filters": 128, "kernel_size": [5, 5], "strides": [2, 2], "padding": "same", "data_format": "channels_last", "dilation_rate": [1, 1], "activation": "linear", "use_bias": true, "kernel_initializer": {"class_name": "TruncatedNormal", "config": {"mean": 0.0, "stddev": 0.1, "seed": null}}, "bias_initializer": {"class_name": "Zeros", "config": {}}, "kernel_regularizer": null, "bias_regularizer": null, "activity_regularizer": null, "kernel_constraint": null, "bias_constraint": null, "output_padding": null}}, {"class_name": "Activation", "config": {"name": "activation_4", "trainable": true, "activation": "tanh"}}, {"class_name": "Conv2DTranspose", "config": {"name": "conv2d_transpose_3", "trainable": true, "filters": 64, "kernel_size": [5, 5], "strides": [2, 2], "padding": "same", "data_format": "channels_last", "dilation_rate": [1, 1], "activation": "linear", "use_bias": true, "kernel_initializer": {"class_name": "TruncatedNormal", "config": {"mean": 0.0, "stddev": 0.1, "seed": null}}, "bias_initializer": {"class_name": "Zeros", "config": {}}, "kernel_regularizer": null, "bias_regularizer": null, "activity_regularizer": null, "kernel_constraint": null, "bias_constraint": null, "output_padding": null}}, {"class_name": "Activation", "config": {"name": "activation_5", "trainable": true, "activation": "tanh"}}, {"class_name": "Conv2DTranspose", "config": {"name": "conv2d_transpose_4", "trainable": true, "filters": 1, "kernel_size": [5, 5], "strides": [2, 2], "padding": "same", "data_format": "channels_last", "dilation_rate": [1, 1], "activation": "linear", "use_bias": true, "kernel_initializer": {"class_name": "TruncatedNormal", "config": {"mean": 0.0, "stddev": 0.1, "seed": null}}, "bias_initializer": {"class_name": "Zeros", "config": {}}, "kernel_regularizer": null, "bias_regularizer": null, "activity_regularizer": null, "kernel_constraint": null, "bias_constraint": null, "output_padding": null}}, {"class_name": "Activation", "config": {"name": "activation_6", "trainable": true, "activation": "tanh"}}]}, "keras_version": "2.2.4", "backend": "tensorflow"}